finalyearengines/weights1/raw_l1_weight.npy (npy, 131200 bytes, 1 tensors)

array i1 [128, 1024]
9 -20 -51 8 5 31 25 28
4 24 -28 -10 40 -10 -62 -39
-43 13 28 -59 -11 3 -23 -19
-52 -29 18 9 19 5 -18 60
25 15 30 -5 4 -50 -77 -71
-24 29 -20 2 49 -15 -29 -33
0 39 -42 -36 -124 46 -3 22
5 27 7 -51 -5 -59 -32 -29
8 -33 -38 18 16 -32 29 -17
-14 -12 34 -9 -18 -11 47 -13
7 12 -2 -19 -92 58 13 -3
-30 9 -26 -38 -3 -9 -15 14
0 23 19 -19 4 57 -18 9
-73 -27 -34 -18 -14 19 -18 24
127 -23 -5 23 -1 -51 -66 -22
32 -28 -55 -24 15 26 -35 -56
-45 13 -8 23 -35 -15 51 -34
-69 -4 -55 52 -6 43 -58 -5
8 -14 -23 32 42 34 37 3
-13 -40 35 5 15 73 14 -33
-50 0 -58 -22 -13 4 -29 8
-4 -20 34 18 0 42 17 55
14 1 14 -32 -25 14 27 -33
-10 -15 23 7 66 -44 14 -43
32 -34 -16 -34 -75 -17 30 30
-51 -17 4 -25 -10 -85 -13 -24
10 -28 10 37 -21 13 16 -19
-14 -35 -4 -52 47 14 -32 54
-15 -4 -34 -13 -37 -5 5 -20
-10 -13 -11 22 15 28 -2 -40
5 12 -38 -13 34 -2 -92 24
55 -22 2 -4 -127 19 10 -36
00000000: 09ec cd08 051f 191c 0418 e4f6 28f6 c2d9
00000010: d50d 1cc5 f503 e9ed cce3 1209 1305 ee3c
00000020: 190f 1efb 04ce b3b9 e81d ec02 31f1 e3df
00000030: 0027 d6dc 842e fd16 051b 07cd fbc5 e0e3
00000040: 08df da12 10e0 1def f2f4 22f7 eef5 2ff3
00000050: 070c feed a43a 0dfd e209 e6da fdf7 f10e
00000060: 0017 13ed 0439 ee09 b7e5 deee f213 ee18
00000070: 7fe9 fb17 ffcd beea 20e4 c9e8 0f1a ddc8
00000080: d30d f817 ddf1 33de bbfc c934 fa2b c6fb
00000090: 08f2 e920 2a22 2503 f3d8 2305 0f49 0edf
000000a0: ce00 c6ea f304 e308 fcec 2212 002a 1137
000000b0: 0e01 0ee0 e70e 1bdf f6f1 1707 42d4 0ed5
000000c0: 20de f0de b5ef 1e1e cdef 04e7 f6ab f3e8
000000d0: 0ae4 0a25 eb0d 10ed f2dd fccc 2f0e e036
000000e0: f1fc def3 dbfb 05ec f6f3 f516 0f1c fed8
000000f0: 050c daf3 22fe a418 37ea 02fc 8113 0adc
