finalyearengines/weights1/raw_l2_weight.npy (npy, 4224 bytes, 1 tensors)

array i1 [256, 16]
0 -14 -62 1 2 -30 92 46
26 -16 -29 25 0 11 33 -27
42 -27 51 -35 -28 -19 45 52
46 -17 13 23 -28 -3 -7 54
-3 38 -6 25 26 0 25 42
61 -49 -45 -17 28 0 -23 2
29 17 -30 -43 -66 -39 85 41
-17 5 -17 60 27 22 8 -6
35 34 -63 -34 29 -39 123 -127
-16 44 -18 24 -14 11 -24 44
14 65 23 17 49 -29 -12 -22
23 -63 -30 -4 -6 -104 -20 16
1 39 1 52 -59 -37 73 -29
25 15 -7 -6 110 -7 -16 0
2 11 36 28 45 44 41 26
-25 -14 -22 9 -127 -2 -22 53
95 8 -19 22 -95 21 -2 -5
-32 0 10 0 -24 28 -10 32
0 41 16 -35 31 -1 22 8
0 52 4 19 0 9 -8 17
-1 -30 9 31 -15 54 -24 17
-56 26 16 -4 78 3 -16 -29
82 127 -19 -38 22 -19 -35 -47
93 10 -107 -4 -39 -71 29 -16
76 -11 -16 -14 -65 -11 -93 31
42 -28 -21 9 -8 -45 -7 107
42 -10 -14 36 -16 41 50 24
-27 -25 -11 34 -72 -4 -11 11
127 36 16 27 20 -34 6 -36
-50 -126 -73 -15 16 -44 76 -48
-29 -37 46 9 -3 -9 45 49
41 11 -50 -8 -46 11 -25 -38
00000000: 00f2 c201 02e2 5c2e 1af0 e319 000b 21e5
00000010: 2ae5 33dd e4ed 2d34 2eef 0d17 e4fd f936
00000020: fd26 fa19 1a00 192a 3dcf d3ef 1c00 e902
00000030: 1d11 e2d5 bed9 5529 ef05 ef3c 1b16 08fa
00000040: 2322 c1de 1dd9 7b81 f02c ee18 f20b e82c
00000050: 0e41 1711 31e3 f4ea 17c1 e2fc fa98 ec10
00000060: 0127 0134 c5db 49e3 190f f9fa 6ef9 f000
00000070: 020b 241c 2d2c 291a e7f2 ea09 81fe ea35
00000080: 5f08 ed16 a115 fefb e000 0a00 e81c f620
00000090: 0029 10dd 1fff 1608 0034 0413 0009 f811
000000a0: ffe2 091f f136 e811 c81a 10fc 4e03 f0e3
000000b0: 527f edda 16ed ddd1 5d0a 95fc d9b9 1df0
000000c0: 4cf5 f0f2 bff5 a31f 2ae4 eb09 f8d3 f96b
000000d0: 2af6 f224 f029 3218 e5e7 f522 b8fc f50b
000000e0: 7f24 101b 14de 06dc ce82 b7f1 10d4 4cd0
000000f0: e3db 2e09 fdf7 2d31 290b cef8 d20b e7da
