finalyearengines/weights/layer_stacks.l2.bias.npy (npy, 1152 bytes, 1 tensors)

array f4 [256]
00000000: a150 683e f67a 4d3e 7fbf a73e fcfd 9ebe
00000010: 9d4e ffbe 8d46 1fbf 6bb5 f2be 994c a6bd
00000020: 2814 4a3e 3299 90bf b158 6c3d 0c06 13be
00000030: afd7 4bbe 4522 913e f8fb 393f 369b edbd
00000040: cce5 22be fa7c 96be 3c1e 0bbf 9fcf b7be
00000050: 3e9f ef3d 7bbd 2e3f e270 28be 0683 99bf
00000060: 3e9f 4fbd b7db 8d3d 5faf 47be 4924 023e
00000070: 3299 f43e 6d36 1f3f 0a85 a2bd 0000 00be
00000080: 1c0e 8f3e 4ba5 b23d 552a 153e 9fcf a73d
00000090: a3d1 48be 7d3e bfbe 168b c53b f4f9 5c3e
000000a0: d4e9 f43c 4ba5 9abe a150 a03e 1a8d c6bd
000000b0: 369b 953e 8944 8a3e 4924 123d 57ab 013f
000000c0: d8eb 853e 9148 04be 0000 50be 8944 babe
000000d0: ad56 dbbe 180c b6be fa7c 1ebe d8eb f53d
000000e0: ad56 db3e 6fb7 bb3d e270 103f 83c1 903e
000000f0: 2c16 933f 97cb e53b 6fb7 933e 180c 7abf
00000100: 47a3 193f 4522 d1bd 552a d53d 5faf d7bd
00000110: 954a 253d 6934 9abd 168b 19bf ad56 0b3f
00000120: abd5 2a3e 5128 9cbe 2412 09bc ecf5 dabe
00000130: f8fb bdbd 5bad d63d b3d9 6c3d 0c06 c33d
00000140: 7bbd de3d 5bad c63e 2010 28be e672 b9bc
00000150: 47a3 51bb 8bc5 e23c 7138 2cbe 0804 c23d
00000160: 3a9d 4ebd 168b bdbe 0a85 4ebf c8e3 c13e
00000170: 793c 943f e0ef 033f 0c06 e33e 8d46 a3bd
00000180: e270 383e ecf5 9a3e 93c9 08bf 77bb fd3d
00000190: d8eb 8dbe a150 a8bd 140a 253e 1a8d 363e
000001a0: 8fc7 63be e270 38bd 4fa7 ab3e c260 903e
000001b0: 6130 b8bd d4e9 443f b55a 293f 0a85 c2bc
000001c0: cce5 923e 2a95 4a3e d0e7 5bbf a150 b03e
000001d0: 57ab 553d 2693 99be fa7c 1ebe 2a95 d2be
000001e0: 180c b63e 6934 9abd 87c3 2dbf 7fbf bf3d
000001f0: e8f3 b93e 53a9 8c3e 5bad 463e 5128 543e
00000200: 9d4e 273e 0804 123e c8e3 713b b7db 4dbe
00000210: 5128 94be 9fcf 67bd d66a 453e c8e3 61be
00000220: ce66 db3e 592c 86be c260 b0be e8f3 19be
00000230: a552 19be 9148 ac3e f67a bd3b 0c06 433d
00000240: 87c3 613b 592c febe 8542 91be 3299 3cbf
00000250: 83c1 c0bd b158 6c3d fa7c 1ebe 5bad eebe
00000260: 9d4e 873e 4fa7 53bc 2a95 4abd e270 883e
00000270: 8140 383f 5d2e cf3e a954 8a3e 1008 843c
00000280: b95c ee3d bfdf 2f3e 1c0e ffbe b95c 4ebe
00000290: 2814 92be 2693 a9bd 67b3 9dbf ecf5 323f
000002a0: 0683 f13e fa7c 2ebe c260 403e 8d46 5fbf
000002b0: 6bb5 92be 180c 423f 0c06 c33e 381c 4e3d
000002c0: 0804 723e 2a95 f23e 8542 31bf a150 28be
000002d0: b158 0c3e 1e8f 27bf fa7c 1ebe d8eb e5be
000002e0: 6fb7 47bf 3c1e 3fbe d268 24be 73b9 a43e
000002f0: 0000 803e 4ba5 223e a7d3 313f c260 b03d
00000300: 8140 403e fe7e 973e 47a3 113d 9148 04be
00000310: cce5 92be 4924 c23e a954 42bf 2e97 9bbe
00000320: 3c1e e73e 5faf 97bf 7138 dc3e e672 e9be
00000330: c4e1 203e a3d1 283f bfdf 7b3f 0e87 c33c
00000340: 0000 103e afd7 b33e 6d36 17bf 6532 91be
00000350: 7bbd 3ebe c8e3 e9be fa7c 1ebe bfdf a1bf
00000360: fa7c de3d 8542 e1be ad56 27bf 0000 0c3f
00000370: 4120 00be e0ef 573e 0683 313e 2010 e8bd
00000380: fa7c 3e3d ecf5 1a3e 2693 39bf 8944 52be
00000390: 1e8f 8fbe 168b 0d3f 6fb7 8dbf bfdf d73e
000003a0: 4522 893e 67b3 193d bd5e 5f3e 0804 2a3f
000003b0: 0000 40be 0a85 5abf b95c 883f 43a1 50be
000003c0: 3e9f 4f3c bfdf 6f3e 168b c53d 47a3 d13a
000003d0: ca64 b2bd 73b9 acbe fa7c 1ebe de6e cfbe
000003e0: 0683 c1bb 6532 91be 381c 32bf 2693 913e
000003f0: 9148 1c3f 2693 913e a7d3 a93e 4ba5 b23d
0.22687007 0.20066437 0.32763287 -0.3105315 -0.49864665 -0.62217027 -0.47404036 -0.081200786
0.19734251 -1.1296751 0.05770177 -0.14357775 -0.19906496 0.28346458 0.726501 -0.1160187
-0.15907973 -0.29392225 -0.5434301 -0.3590059 0.11700295 0.68257874 -0.16449311 -1.199311
-0.050688975 0.06926673 -0.19500493 0.12709154 0.4777313 0.6219242 -0.079355314 -0.125
0.27940452 0.087229334 0.1456693 0.081938975 -0.1961122 -0.37352362 0.006028543 0.21579725
0.029896654 -0.30204234 0.31311515 -0.09694882 0.2921998 0.27005413 0.035679135 0.5065207
0.26156497 -0.12918307 -0.203125 -0.36380413 -0.42839566 -0.35556102 -0.15477362 0.12007874
0.42839566 0.091658466 0.56422246 0.28272638 1.1491141 0.007012795 0.28850886 -0.97674704
0.60014766 -0.102116145 0.10408465 -0.10531496 0.04035433 -0.07529528 -0.59977853 0.5442913
0.1668307 -0.3049951 -0.0083661415 -0.42765749 -0.09276575 0.10482284 0.0578248 0.09522638
0.10875984 0.38804135 -0.16412401 -0.022637796 -0.003198819 0.027682086 -0.16818406 0.09473425
-0.05044291 -0.37020177 -0.8067175 0.37869096 1.1580955 0.51537895 0.4434055 -0.07972441
0.18011811 0.30265749 -0.5343258 0.12389272 -0.27718997 -0.08218504 0.16117126 0.17827263
-0.22244094 -0.04502953 0.33526084 0.2819882 -0.089936025 0.76919293 0.6615403 -0.023745079
0.28690946 0.19783464 -0.8590059 0.34436515 0.052165356 -0.29995078 -0.15477362 -0.41129428
0.35556102 -0.07529528 -0.67876476 0.09362697 0.36318898 0.27472934 0.19402067 0.20718504
0.16338582 0.1425935 0.003690945 -0.20103346 -0.2893701 -0.056594487 0.19279036 -0.22059548
0.4285187 -0.2620571 -0.3444882 -0.15034449 -0.14972933 0.33649114 0.0057824804 0.04761319
0.0034448819 -0.4964321 -0.28371063 -0.7367126 -0.094119094 0.05770177 -0.15477362 -0.46616635
0.26427165 -0.012918307 -0.04945866 0.26648623 0.71973425 0.4046506 0.27017716 0.016117126
0.11638779 0.17175196 -0.49815452 -0.20152558 -0.28531003 -0.082800195 -1.2320374 0.69906497
0.47170275 -0.17039862 0.1878691 -0.87217027 -0.28654036 0.75799704 0.3809055 0.05031988
0.2363435 0.47379428 -0.69242126 -0.16437007 0.13705708 -0.65452754 -0.15477362 -0.44906497
-0.7801427 -0.18663877 -0.16055611 0.32172737 0.25 0.15883367 0.6946358 0.08612205
0.18774606 0.29589075 0.035556104 -0.12918307 -0.28690946 0.37918308 -0.7591043 -0.30388778
0.45140254 -1.1850394 0.4301181 -0.45595473 0.15711123 0.6594488 0.98388284 0.02386811
0.140625 0.3512549 -0.5906742 -0.2835876 -0.18626969 -0.45681596 -0.15477362 -1.2646407
0.10863681 -0.43996063 -0.6536663 0.546875 -0.12512304 0.21087599 0.17335138 -0.113312006
0.046505906 0.15132874 -0.72490156 -0.20533957 -0.28038877 0.55290353 -1.1071604 0.42162892
0.26783958 0.037524607 0.21813484 0.664124 -0.1875 -0.8535925 1.0653297 -0.20374016
0.012672244 0.23425196 0.09645669 0.0015994095 -0.0871063 -0.33735237 -0.15477362 -0.40514272
-0.005905512 -0.2835876 -0.6957431 0.28432578 0.6104823 0.28432578 0.3316929 0.087229334
