finalyearengines/weights/tensor2.npy (npy, 1152 bytes, 1 tensors)

array f4 [256]
-0.18110237 0.5590551 -0.23622048 0.2519685 0.070866145 -0.08661418 -0.4488189 0.09448819
-0.21259843 -1.015748 -0.070866145 -0.20472442 -0.07874016 -0.53543305 -0.38582677 0.19685039
-0.031496063 0.68503934 0.015748031 0.63779527 -0.4566929 -0.19685039 0.36220473 -0.03937008
0.16535433 0.6614173 0.26771653 -0.007874016 0.20472442 0.28346458 0.87401575 0.8267717
-0.47244096 -0.26771653 -0.070866145 -0.8976378 -0.062992126 0.51968503 -0.22834645 0.13385826
0.11811024 -0.26771653 -0.61417323 -0.5590551 -0.047244094 -0.08661418 0.08661418 -0.86614174
0.023622047 0.03937008 -0.031496063 -1.976378 -1.4094489 0.24409449 0.070866145 0.51968503
-0.37007874 0.4488189 -0.015748031 -0.44094488 -0.08661418 0.6062992 -0.2992126 -0.81889766
-0.4015748 -0.1496063 -0.51968503 -0.12598425 0.25984251 -1.2519685 0.17322835 -0.43307087
-0.31496063 0.07874016 0.031496063 -0.48818898 0.33070865 0.2913386 -0.22047244 -0.77165353
-0.31496063 -0.7401575 0.71653545 0.031496063 -0.4488189 0.26771653 -0.33070865 0.007874016
0.062992126 -0.32283464 -0.07874016 -0.5748032 1.6141732 -0.22834645 0.11023622 -0.36220473
-0.3464567 -0.7480315 -0.09448819 0.023622047 0.33858266 0.12598425 -0.39370078 -0.9448819
0.27559054 -0.11023622 -0.40944883 -0.7637795 0.047244094 0.22834645 -0.16535433 0.6456693
-0.11811024 0.26771653 -0.39370078 0.86614174 0.27559054 -0.93700784 -0.047244094 0.37007874
-0.03937008 0.24409449 -0.22047244 -0.047244094 0.062992126 -2.1023622 0.20472442 -0.22047244
-0.07874016 0.22047244 0.062992126 -0.33070865 0.51968503 0.0 -0.5590551 -0.5511811
-0.18110237 -0.22047244 0.03937008 0.062992126 0.24409449 -0.9133858 -0.32283464 -0.19685039
-0.031496063 1.007874 -0.87401575 -0.15748031 -0.5905512 -0.6929134 -0.14173229 -0.10236221
-0.13385826 0.5590551 0.16535433 0.031496063 -0.24409449 0.17322835 -0.70866144 -0.20472442
0.16535433 -0.047244094 -0.5905512 -0.7322835 0.51968503 0.2913386 -0.9448819 0.51968503
-0.14173229 -0.32283464 0.047244094 -0.18897638 -0.13385826 -0.3464567 -0.14173229 -0.20472442
0.43307087 -0.6929134 -0.2992126 0.047244094 -0.7007874 1.527559 -0.984252 0.41732284
0.56692916 -0.7401575 -0.39370078 -0.48031497 0.015748031 0.13385826 0.68503934 -0.28346458
-0.7637795 -0.47244096 -0.39370078 0.8267717 0.63779527 -1.1968504 -0.12598425 -0.31496063
0.5511811 0.5826772 -0.31496063 -0.28346458 -0.19685039 -0.33070865 -1.3543307 0.05511811
0.15748031 -0.023622047 -0.18110237 1.0866141 -0.51968503 -1.3070866 -0.9133858 -0.20472442
0.24409449 -0.08661418 -0.070866145 -0.496063 -0.37795275 -0.5590551 -0.19685039 -0.33070865
-0.4015748 -0.05511811 0.30708662 0.4488189 1.1496063 0.503937 -0.5748032 0.023622047
0.19685039 0.070866145 -0.88188976 -0.10236221 -0.14173229 -0.3464567 -0.25984251 0.14173229
1.3149606 0.13385826 -1.7165354 0.05511811 -0.48031497 -0.7559055 -0.22047244 -0.992126
-0.10236221 1.0472441 -0.070866145 0.08661418 0.51968503 0.031496063 -0.2519685 -0.35433072
00000000: e672 39be 3c1e 0f3f c8e3 71be 0402 813e
00000010: 4522 913d c662 b1bd 97cb e5be 0683 c13d
00000020: 67b3 59be 0804 82bf 4522 91bd 47a3 51be
00000030: 8542 a1bd 2412 09bf 168b c5be 2693 493e
00000040: 0402 01bd bd5e 2f3f 0402 813c 8d46 233f
00000050: a7d3 e9be 2693 49be e672 b93e 8542 21bd
00000060: a552 293e a552 293f 2412 893e 0402 01bc
00000070: 47a3 513e 4522 913e 7fbf 5f3f 4fa7 533f
00000080: c8e3 f1be 2412 89be 4522 91bd 97cb 65bf
00000090: 0402 81bd 140a 053f a7d3 69be 2412 093e
000000a0: c8e3 f13d 2412 89be 753a 1dbf 3c1e 0fbf
000000b0: 0683 41bd c662 b1bd c662 b13d 77bb 5dbf
000000c0: 0683 c13c 8542 213d 0402 01bd f4f9 fcbf
000000d0: d268 b4bf e8f3 793e 4522 913d 140a 053f
000000e0: f67a bdbe 97cb e53e 0402 81bc 87c3 e1be
000000f0: c662 b1bd 6d36 1b3f 6532 99be 47a3 51bf
00000100: 369b cdbe 6532 19be 140a 05bf 0402 01be
00000110: 140a 853e 8140 a0bf c662 313e 77bb ddbe
00000120: 8542 a1be 8542 a13d 0402 013d e8f3 f9be
00000130: a552 a93e 552a 953e 87c3 61be 168b 45bf
00000140: 8542 a1be f67a 3dbf de6e 373f 0402 013d
00000150: 97cb e5be 2412 893e a552 a9be 0402 013c
00000160: 0402 813d 954a a5be 8542 a1bd 4d26 13bf
00000170: 3a9d ce3f a7d3 69be 87c3 e13d e672 b9be
00000180: c662 b1be fe7e 3fbf 0683 c1bd 0683 c13c
00000190: b55a ad3e 0402 013e 2693 c9be c8e3 71bf
000001a0: 341a 8d3e 87c3 e1bd 47a3 d1be 0e87 43bf
000001b0: 0683 413d a7d3 693e a552 29be 954a 253f
000001c0: c8e3 f1bd 2412 893e 2693 c9be 77bb 5d3f
000001d0: 341a 8d3e bfdf 6fbf 0683 41bd f67a bd3e
000001e0: 8542 21bd e8f3 793e 87c3 61be 0683 41bd
000001f0: 0402 813d 1a8d 06c0 47a3 513e 87c3 61be
00000200: 8542 a1bd 87c3 613e 0402 813d a552 a9be
00000210: 140a 053f 0000 0000 3c1e 0fbf 341a 0dbf
00000220: e672 39be 87c3 61be 8542 213d 0402 813d
00000230: e8f3 793e a7d3 69bf 954a a5be 2693 49be
00000240: 0402 01bd 0402 813f 7fbf 5fbf 8542 21be
00000250: 5d2e 17bf c662 31bf 4522 11be 47a3 d1bd
00000260: 2412 09be 3c1e 0f3f a552 293e 0402 013d
00000270: e8f3 79be c662 313e d66a 35bf 47a3 51be
00000280: a552 293e 0683 41bd 5d2e 17bf ee76 3bbf
00000290: 140a 053f 552a 953e c8e3 71bf 140a 053f
000002a0: 4522 11be 954a a5be 0683 413d 0683 41be
000002b0: 2412 09be c662 b1be 4522 11be 47a3 51be
000002c0: 77bb dd3e c662 31bf 6532 99be 0683 413d
000002d0: ce66 33bf 0e87 c33f f0f7 7bbf 57ab d53e
000002e0: 4522 113f f67a 3dbf 2693 c9be d8eb f5be
000002f0: 0402 813c 2412 093e bd5e 2f3f 4522 91be
00000300: 0e87 43bf c8e3 f1be 2693 c9be 4fa7 533f
00000310: 8d46 233f 6532 99bf 0402 01be 8542 a1be
00000320: 341a 0d3f 552a 153f 8542 a1be 4522 91be
00000330: 2693 49be a552 a9be b55a adbf 87c3 613d
00000340: 8542 213e 0683 c1bc e672 39be 2c16 8b3f
00000350: 140a 05bf 9d4e a7bf a7d3 69bf 47a3 51be
00000360: e8f3 793e c662 b1bd 4522 91bd f8fb fdbe
00000370: 0683 c1be 3c1e 0fbf 2693 49be a552 a9be
00000380: 369b cdbe 87c3 61bd 753a 9d3e 97cb e53e
00000390: 4d26 933f 0402 013f 4d26 13bf 0683 c13c
000003a0: 2693 493e 4522 913d 87c3 61bf 47a3 d1bd
000003b0: 4522 11be c662 b1be 140a 85be 4522 113e
000003c0: a150 a83f 2412 093e 6fb7 dbbf 87c3 613d
000003d0: d8eb f5be 0683 41bf 87c3 61be f8fb 7dbf
000003e0: 47a3 d1bd 180c 863f 4522 91bd c662 b13d
000003f0: 140a 053f 0402 013d 0402 81be d66a b5be
