backend/engines/weights/layer_stacks.l1.bias.npy (npy, 640 bytes, 1 tensors)

array f4 [128]
000000 d2 68 30 bf fa 7c 5e 3e 1a 8d 2a bf 04 02 09 3f
       -0.68909943 0.21727362 -0.66621554 0.535187
000010 c6 62 b1 3a 75 3a 7d be cc e5 02 bf b3 d9 bc 3e
       0.0013533465 -0.24729331 -0.5113189 0.3688484
000020 b7 db 6d 3e 97 cb 95 3e e8 f3 2d 3f 18 0c e6 3e
       0.23228346 0.2925689 0.67950296 0.44931102
000030 75 3a ab bf a9 54 5e 3f 6b b5 da bd 08 04 56 bf
       -1.3377215 0.8684793 -0.10679134 -0.835999
000040 5f af 27 be 5b ad f6 bd ad 56 fb be 20 10 f8 3e
       -0.16375493 -0.12044784 -0.49089566 0.48449802
000050 fe 7e 9f be 65 32 79 3f c2 60 20 3e d4 e9 8c 3e
       -0.31151575 0.9734252 0.1566191 0.27522147
000060 b5 5a c5 3e 89 44 82 be 02 81 de 3f 38 1c a4 3f
       0.38545766 -0.25442913 1.738312 1.2821112
000070 4d 26 eb be 34 1a 79 3f fa 7c be 3e 4f a7 fb 3e
       -0.4592766 0.9730561 0.37204725 0.49151084
000080 43 a1 c0 3e ab d5 ea 3c 95 4a e5 3d 85 42 21 3f
       0.37623033 0.028666338 0.11195866 0.62992126
000090 61 30 48 be 0c 06 03 bc e0 ef cf be af d7 03 3f
       -0.19549705 -0.007997047 -0.40612698 0.5150098
0000a0 ee 76 d3 3e ce 66 c3 3e 89 44 6a 3f 1e 8f 81 3f
       0.41301674 0.3816437 0.91510826 1.0121801
0000b0 fe 7e 57 bf ec f5 d2 3e 9b cd d6 3e 4f a7 33 be
       -0.8417815 0.41203249 0.4195374 -0.17544292
0000c0 ea 74 ba bd 7b bd 5e be f6 7a 6d 3e 89 44 22 3d
       -0.09104331 -0.21751969 0.23191437 0.03961614
0000d0 2a 95 ca 3e ca 64 72 bd 4b a5 8a be 45 22 11 3b
       0.39566928 -0.05917815 -0.27079234 0.002214567
0000e0 77 bb 01 3f b5 5a 85 3e bf df 23 3f f6 7a dd 3e
       0.50676674 0.26045766 0.64013284 0.43257874
0000f0 3e 9f 87 be 3c 1e af 3e 8f c7 8b 3e 87 c3 01 3e
       -0.2648868 0.34202754 0.2730069 0.12672244
000100 f8 fb 2d be b5 5a 6d be ad 56 0b 3e 3e 9f af 3d
       -0.1699065 -0.23179133 0.13607283 0.08575295
000110 81 40 80 3e a1 50 88 bd 89 44 82 be 9b cd 66 3d
       0.25049213 -0.06656004 -0.25442913 0.056348424
000120 a3 d1 78 3e 67 b3 69 3e 3e 9f af 3e 95 4a 85 3e
       0.2429872 0.22822343 0.3430118 0.26033464
000130 ab d5 8a be 69 34 9a 3e a1 50 78 3e 28 14 2a be
       -0.2711614 0.3011811 0.24249507 -0.16609251
000140 53 a9 9c be 93 c9 24 bd 87 c3 e1 3c 06 83 31 be
       -0.30597934 -0.0402313 0.027559055 -0.17335138
000150 55 2a 05 3e 97 cb c5 3d dc ed 86 be f2 78 7c 3d
       0.1300443 0.09657972 -0.26353347 0.06163878
000160 de 6e 2b 3f a1 50 28 3e 32 99 b4 3e 61 30 18 3e
       0.66966045 0.16437007 0.3527313 0.14862205
000170 3a 9d 6e be 0e 87 43 3e 5d 2e af 3e 97 cb 65 3d
       -0.23302165 0.19094488 0.3421506 0.05610236
000180 38 1c b6 be 53 a9 24 3e 38 1c 0e bd 97 cb c5 3d
       -0.35568404 0.16080217 -0.03469488 0.09657972
000190 6f b7 83 3e b1 58 2c 3d 08 04 c2 bd d4 e9 f4 3c
       0.25725886 0.04207677 -0.09473425 0.029896654
0001a0 57 ab 05 3f fc fd be 3d 32 99 4c 3e 1e 8f 17 3e
       0.5221457 0.093257874 0.19980314 0.14800689
0001b0 41 20 90 be 71 38 fc 3d b1 58 94 3e 5f af d7 bc
       -0.28149608 0.12315453 0.28973916 -0.02632874
0001c0 02 81 88 be 59 2c 26 3e 1e 8f e7 3d 77 bb 9d 3d
       -0.26660925 0.16227855 0.11306594 0.07701772
0001d0 fa 7c 7e 3d 06 83 11 3e ca 64 32 3d a9 54 ea 3d
       0.062130906 0.14210138 0.04355315 0.11441929
0001e0 fe 7e 5f 3e c6 62 31 3d b1 58 ec 3d ee 76 3b 3e
       0.21825787 0.04330709 0.11540354 0.18307087
0001f0 47 a3 71 be b9 5c 96 3e 8f c7 63 bc a7 d3 69 3d
       -0.23597442 0.29367617 -0.013902559 0.057086613
